…
C:\Users\bawej\.venv\Lib\site-packages\keras\src\layers\convolutional\base_conv.py:113: UserWarning: Do not pass an `input_shape`/`input_dim` argument to a layer. When using Sequential models, prefer using an `Input(shape)` object as the first layer in the model instead.
  super().__init__(activity_regularizer=activity_regularizer, **kwargs)
2025-08-20 11:52:28.066160: I tensorflow/core/platform/cpu_feature_guard.cc:210] This TensorFlow binary is optimized to use available CPU instructions in performance-critical operations.
To enable the following instructions: SSE3 SSE4.1 SSE4.2 AVX AVX2 FMA, in other operations, rebuild TensorFlow with the appropriate compiler flags.
Model: "sequential"

 Layer (type)                          Output Shape                         Param # 

 conv2d (Conv2D)                       (None, 126, 126, 32)                     896 

 max_pooling2d (MaxPooling2D)          (None, 63, 63, 32)                         0 

 conv2d_1 (Conv2D)                     (None, 61, 61, 64)                    18,496 

 max_pooling2d_1 (MaxPooling2D)        (None, 30, 30, 64)                         0 

 conv2d_2 (Conv2D)                     (None, 28, 28, 128)                   73,856 

 max_pooling2d_2 (MaxPooling2D)        (None, 14, 14, 128)                        0 

 flatten (Flatten)                     (None, 25088)                              0 

 dense (Dense)                         (None, 128)                        3,211,392 

 dropout (Dropout)                     (None, 128)                                0 

 dense_1 (Dense)                       (None, 5)                                645 

 Total params: 3,305,285 (12.61 MB)
 Trainable params: 3,305,285 (12.61 MB)
 Non-trainable params: 0 (0.00 B)
C:\Users\bawej\.venv\Lib\site-packages\keras\src\trainers\data_adapters\py_dataset_adapter.py:121: UserWarning: Your `PyDataset` class should call `super().__init__(**kwargs)` in its constructor. `**kwargs` can include `workers`, `use_multiprocessing`, `max_queue_size`. Do not pass these arguments to `fit()`, as they will be ignored.
…
